first_model_29_gpu.pth (torch, 587335 bytes, 10 tensors)

weight f4 [32, 3, 5, 5]
00000000: 6aa5 c4bd 1bbe cbbc 38c7 4a3d c58c 85bc
00000010: 7f8b 7f3d bcf0 bf3d c11e 393e bcf7 8d3e
00000020: 2659 7a3d cc53 0abe 9610 1ebd b774 7abc
00000030: 7777 743c 3f15 60bc 7b58 37be f87d 4cbd
00000040: 042f 34be bcad a4be 0691 4fbe 66b6 443d
00000050: 8b24 183d d2fa dbbc d6a9 03be 9cae 16bd
00000060: 8053 32bd 61dc 88bc 16a3 3cbd a71c 933d
00000070: 4e3f 1f3e 9550 e43d 182b 69bd 667f 653d
00000080: 7696 653e ccc1 d33d 10e3 8bbd 5269 013d
00000090: 0a39 f53c a133 e83c a462 18be e2b9 d4bc
000000a0: e8d3 893d 1ea9 35bd b11c 52be dfc6 02be
000000b0: e064 213e e877 e43d 1df8 1dbd aeb2 d73d
000000c0: 17e6 863d e34d f63d 98de 293d aeb4 fe3b
000000d0: 4c47 583b e83e 853d 08d4 83bd 1400 2d3e
000000e0: 3828 893e d652 803e 093b 4c3e 6f12 ef3a
000000f0: 7ea6 17bd 9560 9c3c 2d4d 71bc 63be 143d
00000100: ab15 e4bd e34d c7bd 1fbc 23be f226 85be
00000110: fad4 cbbd 2a44 ee3d c2f2 0f3b 18d7 673d
00000120: 5f58 d5bd 47e9 c4bb 3263 ab3d 8d83 353c
00000130: 275a b4bd b69e 12bd 4265 c1bd f6df 4dbd
00000140: d441 0a3e 1cfc 5e3d 4585 25be 0326 d6bd
00000150: 3148 0a3e d4b3 ac3d 9f02 ce3d 92a4 b4bd
00000160: 2277 3b3d 76fe 70bd 99f6 80ba 9090 1ebd
00000170: ae5d 17be 04ea f13c aeb0 edbd 3840 283e
00000180: 37a0 68bd d63e b4bd eeab b8bc 886b d6bc
00000190: 21f9 b5bc 6df4 89bc b0c4 3bbe 15a8 163e
000001a0: 08d4 d43d 12ec 923d b9f1 943c b9aa d7bd
000001b0: fd53 c53c db6b 963d 612d 6d3e 4528 eb3d
000001c0: b247 73bd 9d60 bcbd e175 503d fa01 29bc
000001d0: 09c4 7e3d 7255 11be 4da7 d2bd 5809 f2bd
000001e0: d733 7e3e afb2 abbd bc87 583d 4526 4c3d
000001f0: a24e e43b 4ed8 5fbd 548b 583b bb7c fdbd
00000200: e1e8 113e bb5c 723d c668 a33d 818f 0ebc
00000210: cb6b 51be d36a e83c 7677 50bd 629c a93d
00000220: 906f c2bd 426c 58be ac79 e13b 6215 f5bd
00000230: 1016 3a3d 9282 a3bd 0c3a 32be df8b 1dbe
00000240: daa0 0abe 4e89 593e 5037 833c 84b6 b1bd
00000250: ee3b 5b3d 9f32 e7bd 44b8 c83d 1553 1ebe
00000260: 3f08 2cbd e309 0f3e 3e81 73bc 970b 093e
00000270: fcb5 43bd 2cc6 38be 32cd d23c dbbb db3c
00000280: 8e86 4a3e 9a6d d2bd 583d b7be 0fae 173e
00000290: 3f18 183d cf08 c23d 54cb ac3d 504c c8be
000002a0: c811 80bd 8a0c 193e f03b 343c 3f34 ec3d
000002b0: c653 84be 5823 10be e222 363e 6b73 60bd
000002c0: 9298 35bc 7ae2 43be b2b2 97bd 6b3a d4bb
000002d0: a883 973d 5a2c 69bd 8293 90be d177 7f3d
000002e0: e88b 4c3e 46c0 5d3e 5b58 abbd d3f9 e5be
000002f0: 0d6d 8bbc 1559 7a3e bf01 353e 4c0b 843d
00000300: ceaa fbbe 5b6d a93d 8872 633e 5626 9b3d
00000310: 016d 183e b903 97be 6a33 6bbe 573c 623e
00000320: 1bce 993d 6173 88bc 4864 cfbd c016 993d
00000330: 3c64 923d f22f 823d fc3b 0ebd 4d4b 1ebe
00000340: fe15 1e3e 1c09 8abc 446d 653e 4afa 6ebd
00000350: 62ab 3bbe 08af 1a3d 7bb8 f73d 1596 0f3e
00000360: c883 cc3d 5a67 bfbe 359c 4fbd f2ed 763e
00000370: a761 063e 3d0b cb3c b65e 3cbe ade7 21be
00000380: d494 2a3e 1327 4ebe 9a19 e03c 944c 86bd
00000390: db24 0d3e 92ac cfbd 2d14 3abd 96de 2f3d
000003a0: 2814 cc3c 7157 153e 93b7 bebd 522c dc3d
000003b0: 896d 053e bde5 463e 819c 5d3e 5ba4 76bd
000003c0: 96d1 0c3e 4b26 993c c6da 453e d497 cb3d
000003d0: ec68 df3d e7d7 e73d fa23 103b e63f 253e
000003e0: 4601 cdbc 972b 453d 5850 aebd c878 9cbd
000003f0: fc28 f3bc af6e 8b3d 580c 3b3c a4f2 5bbe
-0.09601863 -0.024870923 0.049506396 -0.016302476 0.062388893 0.09372088 0.18078138 0.2772807
0.061120175 -0.13508528 -0.038590036 -0.015286616 0.014921061 -0.01367694 -0.17904846 -0.04992482
-0.1759606 -0.321638 -0.20270166 0.04802551 0.037144225 -0.026852999 -0.12857756 -0.036787614
-0.043536663 -0.016706647 -0.04605397 0.071831994 0.15551493 0.11148182 -0.056925863 0.0560297
0.22420678 0.10339698 -0.06830418 0.031594582 0.029934425 0.028344931 -0.14881378 -0.025967542
0.06729871 -0.044350736 -0.20518757 -0.12771176 0.15761137 0.11155683 -0.038566697 0.10532127
0.06586855 0.120265745 0.041472048 0.0077730035 0.003300148 0.06506139 -0.06436926 0.16894561
0.26788497 0.250632 0.19944395 0.0018239747 -0.037024014 0.019089023 -0.014727873 0.03631438
-0.11136945 -0.097316526 -0.15989731 -0.26006275 -0.099527314 0.11634095 0.0021964763 0.056601614
-0.10417246 -0.006009254 0.083685294 0.011078727 -0.08806258 -0.03579589 -0.094431415 -0.050262414
0.13501674 0.05443965 -0.1616412 -0.10456469 0.13504101 0.08432737 0.10059094 -0.08820452
0.04576791 -0.058836423 -0.0009839117 -0.038712084 -0.1478183 0.029530533 -0.116059646 0.16430748
-0.056793418 -0.088010475 -0.02254292 -0.026174322 -0.02221352 -0.016840184 -0.18336749 0.14712556
0.10392004 0.07173933 0.018181669 -0.1053061 0.0240879 0.073447905 0.23161842 0.1148229
-0.059394546 -0.09198115 0.050893668 -0.010315413 0.062198672 -0.14192751 -0.10285816 -0.118181884
0.24824463 -0.083836906 0.05286382 0.049841184 0.0069673816 -0.054649644 0.003304203 -0.12377306
0.14248993 0.059170466 0.07978968 -0.008701206 -0.20451276 0.02837125 -0.050895177 0.08281781
-0.09493935 -0.21135047 0.0068809595 -0.11966969 0.045431197 -0.07983889 -0.17404956 -0.15385388
-0.13537923 0.21243784 0.016017586 -0.0867739 0.05352395 -0.11288952 0.09800771 -0.15461381
-0.04200005 0.13968615 -0.014862357 0.13383327 -0.047780976 -0.18044347 0.02573261 0.026822975
0.19777891 -0.10274811 -0.3578899 0.14812492 0.037132498 0.09474336 0.08437219 -0.39120722
-0.062533915 0.1494619 0.011000618 0.11533403 -0.25845164 -0.14075983 0.17786744 -0.05479757
-0.011083739 -0.19129363 -0.0740713 -0.0064766905 0.07398158 -0.056927063 -0.2823754 0.062370125
0.19975245 0.21655378 -0.08366462 -0.44917163 -0.017019773 0.24448045 0.17676447 0.06447467
-0.4915375 0.08272811 0.22211659 0.075756714 0.14885332 -0.29495028 -0.22968832 0.2209333
0.075100146 -0.01665658 -0.10126549 0.07475042 0.071480244 0.06356801 -0.034725174 -0.15458412
0.15438077 -0.016850047 0.22404963 -0.058344163 -0.18327096 0.03776458 0.12095734 0.14022096
0.09986073 -0.37383538 -0.05068608 0.24114206 0.13123189 0.024785632 -0.18395504 -0.15811034
0.16658336 -0.20132093 0.027355958 -0.06557575 0.1378359 -0.10140337 -0.045429397 0.042936884
0.024911955 0.14584137 -0.09312358 0.10750641 0.13030066 0.19423576 0.21641733 -0.060215335
0.13751826 0.018695017 0.19321737 0.09941068 0.10908684 0.11320477 0.00219941 0.16137657
-0.025025021 0.048137274 -0.08511418 -0.07640225 -0.029682629 0.068082206 0.011416517 -0.21479279

bias f4 [32]
00000000: 8315 5cbe d9d6 833e 8e7e 063e 2771 7cbe
00000010: 1d95 edbd ce4d fc3d 117e aabd 3ad4 93bd
00000020: 58cc 33bd 901b c4bd fc8b 3cbd 0c49 b3be
00000030: fb58 ca3e 9414 2ebe 6793 b4bd 1582 47be
00000040: 2685 a63e 898c 303e d5ae ea3c 36a6 7fbe
00000050: aebd 5fbe 8bfb 1c3e 56bd aabd 0166 9bbe
00000060: c278 2cbe d325 1bbe f6d0 41bd 3577 ad3d
00000070: f7ee 09be 09ce 00be 8019 813d d1ed 8bbe
-0.21492581 0.25749853 0.13134214 -0.24652539 -0.11600707 0.123195276 -0.083248265 -0.072182134
-0.04389605 -0.0957557 -0.046031937 -0.35016668 0.39521012 -0.17000037 -0.08817177 -0.19483216
0.3252346 0.1724111 0.02864782 -0.24965748 -0.21849701 0.15330331 -0.08336894 -0.3035126
-0.1684294 -0.15151148 -0.04731842 0.084700026 -0.13470064 -0.12578596 0.06303692 -0.27329877

weight f4 [32, 32, 5, 5]
00000000: 04b7 e83c 3331 c1bc 5017 bb3c 8048 07bd
00000010: a066 91bc bbce 03bc 099d bb3c 0075 0e3d
00000020: 3cb4 aa3b 52fc dd3c 7286 4e3c f993 e7bc
00000030: e711 3fbd 30cb 1ebd ba4a 30bb 0ef7 613d
00000040: f6ce 47bb bd7d 833b 8c2e 793d f1e7 373d
00000050: 7251 353c 1258 b13c af79 3ebd 630d b43c
00000060: 3b92 003d f3c3 023d 013e 94bc 9372 32bc
00000070: 2683 723c 0a24 643d 4524 113c a2c6 a33c
00000080: 1483 e1bc 9afd fabc 23db 023d f8ac 053d
00000090: 74ed b93c 9ec7 a33a 3ee0 02bd 443c d33d
000000a0: af25 8cbb 668b fb3c 1ff7 753d 7c4b 8fbb
000000b0: 3e2b b83d 164b ab3b 3366 92bd 0603 e5bc
000000c0: de34 30bd ef65 673d 28ef a83c 737a 393c
000000d0: fd5e 9c3d c0a8 963c 8c39 323d 2e32 97bc
000000e0: be8b b43a 3fc0 8d3d ee21 9ebd f6e4 a73d
000000f0: 154f 1f3d 2bdc 52bd 05f3 2d3e 1c6f 49bd
00000100: b2eb 2e3e a216 2d3d 171f 63bd 5188 0f3e
00000110: c875 d0bd e8d8 0f3e e718 cabd 7a93 86bd
00000120: c065 5e3d 19d8 0ebe c73d 3abc defc 4c3c
00000130: 07b5 293d 01a1 653d 20d9 81bc 4a3f 9dbc
00000140: be24 ba3c f52d d33c 7356 483d dcc4 143d
00000150: 410d d5bb a578 0b3d e223 c63c b341 21bc
00000160: 1416 843c 7c55 f63c 64b4 20bd df8a 4a3c
00000170: 7dd4 1ebc fbf0 f23c 49bd ea3c b0f1 e8bc
00000180: 9b57 aebc 7f32 5abc e6fe c43c e3d6 303c
00000190: 87a9 fc3c e561 d53c 1903 dd3a f634 323d
000001a0: 30b6 663d 879c 143d e1b3 233d fd03 c7bb
000001b0: 0081 11bd ac80 a03d 37fb 5c3b 4b6c 223d
000001c0: ff3a 113c 0b1d 1fbd 5b99 093d b282 1f3d
000001d0: 713a b03c ab58 863b a486 1dbd 468e b63d
000001e0: b1a6 b5bc eca6 b0bc 2f0b 193d 211c b83c
000001f0: 49d9 413d b5eb b23c 441b 023d 3c23 d83c
00000200: 6fc2 5ebd 6949 d7bc 4034 0b3c 50e2 69bc
00000210: 18e5 c13d a05f efbc de2c 9f3d 85f9 403d
00000220: fa03 edbc fd9f 2e3e 76f0 63bd 6bc6 d83d
00000230: ebd7 da3c 0919 7fbd c8c4 193e 4d84 b6bd
00000240: 94e4 a43d f17e a53c be82 64bd 7da2 1c3d
00000250: 0b85 68bd 0578 073d c0cf 18bd 4a38 0e3c
00000260: ca9c 1fbc 93bb 8f3c 5214 acbc 0057 ecbc
00000270: 584d 5abd e5b7 76bd c0bc 40bd 3ad2 84bd
00000280: 5cfe 6b3c fb49 613d 105b 7bbd deb2 503d
00000290: dd26 16bd 21f6 1e3c 5aab 3a3c a23b 79bd
000002a0: 116b 62bd c1f8 9cbd 7506 ac3d 9146 0e3d
000002b0: c46f 003d 9223 833d d106 c83c ead8 163d
000002c0: 4b5a 143d 3c2d 303d 6bce 203d 1989 143c
000002d0: 43a2 b1bb 28f4 a1bc 3736 8fbc c470 41bd
000002e0: 41e3 8c3b 16b2 8bbc 3b42 64bc a03a 90ba
000002f0: 402f 10bd eb8d 4dbc 0563 80bc cf3e 3f3b
00000300: 0fa6 37bb 0ae4 40bd b276 92bb 9e29 d1bb
00000310: d038 90bc 267b 183d b9f3 38bd eb4a be3c
00000320: e5b9 df3c c4dd 8f3d 404a 533d 7e82 fb3c
00000330: 27f6 3f3c 487a 443d b0ef 493d 28e3 013d
00000340: bb3a 8fbc 0da8 92bd d609 113c 8b85 16bd
00000350: 0a00 03bd 27d8 a0bd 296a 2dbc be81 163d
00000360: 4da9 c0bc 499b 5a3d 0b18 26bd 60e2 04bd
00000370: 2373 b23c af23 303d 2a58 4f3d 9825 213b
00000380: de71 933c 7cce 6ebc 977e 0c3c db0b 153d
00000390: 923f ecbc 2688 1cbd ac97 0d3c aa70 2abc
000003a0: c5e9 e838 9d26 64bb a8ce 90bc d470 593b
000003b0: 413b 64bc c00d e73c 8550 243d dd9f 3e3d
000003c0: 2be4 acbc ea90 3abc a7b9 8d3b c2f1 913b
000003d0: 06c6 ddbc a3d1 253d 26d0 823c 1558 c63b
000003e0: 2335 333d eea8 a03c 91c6 fb35 376e 25bb
000003f0: 7e7d 1d3d cd22 533c ef46 bc3c ef33 7d3b
0.028407581 -0.02358303 0.022838265 -0.033028126 -0.01774913 -0.008044894 0.022902029 0.03477955
0.005209474 0.027097855 0.012605296 -0.028268801 -0.046647932 -0.038767993 -0.002690001 0.05516725
-0.0030488349 0.004012792 0.060835406 0.04489893 0.011066781 0.02164844 -0.046502765 0.02197904
0.031389456 0.031925153 -0.018095972 -0.010891574 0.014801776 0.055698432 0.008858745 0.019992176
-0.027528323 -0.030638505 0.031947266 0.03263566 0.022696234 0.0012495404 -0.031952135 0.10314229
-0.004276953 0.030706119 0.060050126 -0.004373012 0.08992623 0.005227457 -0.07148399 -0.027955543
-0.043019168 0.056493696 0.020621851 0.011320698 0.07635305 0.018391013 0.043511912 -0.018456545
0.0013774557 0.06921434 -0.07721315 0.08197968 0.038893778 -0.0514795 0.16987236 -0.049178228
0.17082098 0.042257912 -0.05544957 0.14016844 -0.10178715 0.14047587 -0.09868031 -0.06571098
0.054296255 -0.13949622 -0.011367268 0.01251146 0.041432407 0.05606175 -0.015850604 -0.019195218
0.022722598 0.02577875 0.04891057 0.036320552 -0.006501824 0.034050602 0.024187032 -0.009842324
0.016123809 0.030070059 -0.039234534 0.012362211 -0.009694216 0.029655924 0.028654711 -0.028435558
-0.021282008 -0.013317703 0.024047326 0.0107934205 0.030842556 0.026047656 0.0016861885 0.04350754
0.05632609 0.03628209 0.039966468 -0.0060734735 -0.035523415 0.07837042 0.0033719072 0.039654057
0.008864163 -0.038846057 0.033593517 0.038943 0.021512242 0.0040999255 -0.03845848 0.08913855
-0.022174211 -0.02156397 0.03736418 0.02247435 0.04732636 0.02184091 0.031764284 0.026383989
-0.054384645 -0.026280122 0.008496344 -0.0142751485 0.09467524 -0.029220402 0.077722296 0.04711296
-0.02893256 0.17053218 -0.055649243 0.1058472 0.026714286 -0.062279735 0.15016472 -0.08911953
0.0805141 0.020202132 -0.055788748 0.0382409 -0.056767505 0.033073444 -0.0373075 0.008680413
-0.009741971 0.017545497 -0.021005783 -0.028850079 -0.053296417 -0.06023397 -0.047055006 -0.0648541
0.014403906 0.055002194 -0.06136614 0.05095183 -0.036658157 0.009702236 0.011393392 -0.060847886
-0.055277888 -0.076646335 0.08399669 0.034735266 0.031356588 0.06403269 0.024417313 0.03682796
0.036218923 0.04301189 0.039259356 0.00906589 -0.0054209544 -0.019769743 -0.017481906 -0.047226682
0.0042995517 -0.017052691 -0.013931806 -0.00110038 -0.03520131 -0.012546043 -0.015672216 0.0029181724
-0.0028022563 -0.047092475 -0.004469716 -0.006383135 -0.017605215 0.03722682 -0.045154307 0.023229083
0.027310321 0.0702472 0.051584482 0.030701872 0.011716402 0.04796818 0.04930085 0.031710774
-0.01748406 -0.071609594 0.008852443 -0.03674845 -0.03198246 -0.07853728 -0.010584393 0.036744826
-0.023518229 0.053370748 -0.040550273 -0.03244245 0.021783417 0.04300278 0.05062119 0.0024589058
0.017998632 -0.014575597 0.008575103 0.03638826 -0.028838906 -0.03821578 0.008642118 -0.010402838
0.00011106165 -0.0034813054 -0.017676666 0.0033178823 -0.013930143 0.028204799 0.040115852 0.046539176
-0.021104893 -0.011387089 0.00432511 0.0044538686 -0.027071964 0.04048313 0.015968394 0.0060529807
0.043751847 0.019611802 1.8758748e-06 -0.0025242695 0.038449757 0.012886715 0.022983043 0.003863569

bias f4 [32]
00000000: 0b74 0ebd 0783 42bd 5060 e6bd c6f5 efbd
00000010: aadd 14be 6511 c0bd 826f e5bd c8be 9c3c
00000020: 3304 cebd 2019 c0bd e345 183d 9bae 1fbd
00000030: cbc1 18be 6d59 79bd f93c bcbd 9d60 d4bd
00000040: e97b 25be e2bb 1bbd 5b3b c7bd 29b1 c13c
00000050: 1e06 2bbe 4ffc 63be c791 cdbd dcbf 833d
00000060: 2265 eb3a b1e2 87be dc4f 80bc 4c8f afbd
00000070: 71b5 88be 15a6 b2bd 0919 65be 7064 9dbd
-0.034778636 -0.04748824 -0.11248839 -0.117167994 -0.14537683 -0.09378318 -0.11202909 0.01913394
-0.10059395 -0.09379792 0.037176024 -0.038984876 -0.14917676 -0.0608763 -0.09191317 -0.1036999
-0.16160549 -0.038020976 -0.09728118 0.023644047 -0.16701552 -0.22264217 -0.100375704 0.06433079
0.0017959217 -0.2654014 -0.01566308 -0.085722536 -0.2670093 -0.08723084 -0.22372831 -0.076851726

weight f4 [64, 32, 5, 5]
00000000: 1bed 1bbd e9a2 903b caec 053d a88c 94bc
00000010: 24e0 74bd c728 783b bc88 06bc 5359 ef3b
00000020: 79fe 45bd ce14 6e3c fa47 e7bc e72f af3c
00000030: d6d9 f63c a918 c83c fefa 12bd 9c11 0dbd
00000040: 5b86 253c ed20 73bd bf56 3d3d 5fdc 39ba
00000050: 6c8d 1cbd a92c 603c 636d 52bc f3da 93bb
00000060: 715b f73c d137 e739 a957 273d 6ee7 ba3c
00000070: 6dc6 dcba 7ea0 52bd 4398 5c3b 4f11 7e3d
00000080: 0420 e9bc 3b15 c23c 33d7 39bd aac7 d5bc
00000090: d0a4 353c f415 02bd 2ee1 03bd a48e f5bb
000000a0: 9010 96bb 8344 6d3d 6827 3c3d ef27 573c
000000b0: d997 b43c 592b a8bc b56a 52bc 7005 91bc
000000c0: bb70 243c 0dcd 0e3d 868e 583c 264c 8bbc
000000d0: a4ed e23c 9c22 29bd 0e14 14bd a846 c3bc
000000e0: 6949 a53c 9a1b 373c d811 01bc a936 16bd
000000f0: 967e 253d 0f0e 123c 9a95 293d f25a 333a
00000100: 39a2 513d 88f6 283c 09e1 fbbc b783 90bd
00000110: 7e38 d9bc 30f4 223b 8eda e4bc 5e60 59bd
00000120: dc64 c9bb 04de 333c 5b80 193d de7d d6bc
00000130: ab15 ebbc 8157 fdbc 937e 93ba 3821 9ebc
00000140: 848d 90bb 511a 45bd 4b30 47bd 926e 38bc
00000150: e049 933a bfea 1bbc 5ff1 36bc a1e8 963b
00000160: 6db6 39bd ca02 9dbc 5fa9 353d 01d8 b8bc
00000170: b543 c3bc 2b97 4a3c cdf5 6f3c 9dc6 843c
00000180: aeee 943a e82b 753c e840 84bc 2da8 15bc
00000190: d2e7 433d 4270 43bc 87e6 d43c 068c 803d
000001a0: cc4c ac3c f265 063d 80db cd3d 5b79 8cbb
000001b0: 261a 60bc c102 013d 69d7 d4bc 7c96 b33c
000001c0: a444 89bc f434 f73c 0e1c 203d 0425 35bc
000001d0: 4cfb ad3c 98bb 9abc 762c 0f3c 12bd 0e3c
000001e0: 44f3 98bc f0e8 043d 238d 24bd 7b65 13bc
000001f0: 749f b13d 0d9f 233d e3a0 963c f4a1 14bd
00000200: d751 0cbd 847f bebc 5eeb f23b a885 1cbd
00000210: cd29 a2bc 3b49 023d d8af d0bc 6b86 e6bc
00000220: 0ced 42bd 3872 18bd 5fe7 503c 86cc 40bc
00000230: a23a 10bd 957c 9dbd 8f34 d9bb dd0a 8fbd
00000240: 8d49 32bc 0f1c 2c3c 39bf eab9 6ca4 763c
00000250: 034b cc3c 862c e43b f8a4 5ebd ea1a 80bc
00000260: 5ffb 8bbc c958 143c ca75 c2bc e880 ccbc
00000270: c168 1dbd 3491 0fbd 87a6 9cbc 349a b23c
00000280: 0ba4 b438 c80e 6b3b 43ba b33c d2b3 933c
00000290: 5d18 51bc 27b4 393d 25a4 063d 476f 263d
000002a0: c2a3 6d3d 91ea 8ebc da5b b7bc 11b9 ecbc
000002b0: 4994 8dbd 4188 c43c ea05 2cbd 2e11 213b
000002c0: b6eb b9bc ee58 babc d66a 52bb 744b a8bc
000002d0: 1684 f1bc 3657 3f3c e3d2 99bd 26be 2c3c
000002e0: baca 813c a4be 30bd fc24 a23c b3b2 46bd
000002f0: 2a84 66bd f4ad 39bd 8349 8e3d 1f01 533c
00000300: 6107 13bd 2b98 06bc b374 2d3c 063d 2fbd
00000310: 87c8 c33c 6e33 383c 5490 0c3d d04d 9c3c
00000320: e7e6 103c c3b8 d0bc 5297 cabb ebd8 15bd
00000330: e95b 04bc c725 98bb f6c9 0bbb eb6d aa3c
00000340: 98ed 723d 7573 1bbd fba8 003d cfc0 5abd
00000350: e05a e2bb aa11 1bbd 33ab c23a dc2e e5bc
00000360: c1d9 6fbd 28b6 1f3d 5c37 d5bb e652 303d
00000370: 90cb 0e3d c28d b4bc 2e7b e5bc 0e4c 47bc
00000380: 8e9d 2fbd 0f53 733c 3430 97bc 2f9e ec3c
00000390: 6b9b 28bd b221 943c 0a67 98bc 43cd 23bd
000003a0: 8725 ab3c 00ec 39bc 69bb 2cbc 0d01 65bc
000003b0: f3e3 df3c 936c 1abd 0d10 dc3c d766 293d
000003c0: 969c 8bbc 5e33 9fbc f8df e43c 7a07 603c
000003d0: b93b 203d 1ab6 053c 52ab 03bd aca0 f8bc
000003e0: 60e5 70bd 667e 5bbd f362 6b3a 2b65 e73d
000003f0: 057f e0bc 4d35 fa3c 3e5b 02bd 328c 7a3d
-0.03806792 0.0044139517 0.032696523 -0.018133476 -0.05978407 0.0037866102 -0.008211311 0.0073043494
-0.048338387 0.014531327 -0.028232563 0.021385146 0.03013317 0.024425821 -0.035883896 -0.03444062
0.010102834 -0.059357572 0.046225306 -0.0007090028 -0.038220808 0.013682523 -0.012843463 -0.0045121848
0.03019497 0.0004410134 0.040855084 0.022815432 -0.0016843803 -0.05142259 0.003366009 0.062028226
-0.028457649 0.023691764 -0.045371246 -0.026096184 0.011086658 -0.031759217 -0.03219717 -0.0074938107
-0.004579611 0.057926666 0.04593602 0.0131320795 0.022045063 -0.020528482 -0.012842824 -0.017702788
0.010036643 0.03486352 0.013217574 -0.017004084 0.027701207 -0.04129277 -0.03615194 -0.023837402
0.020176606 0.011176014 -0.007877789 -0.03667322 0.040403925 0.008914485 0.041402437 0.000684186
0.0511801 0.010312684 -0.030746954 -0.070563726 -0.026516195 0.0024864785 -0.027936246 -0.05307042
-0.0061460566 0.010978226 0.037475925 -0.026183065 -0.028696856 -0.030925514 -0.0011252932 -0.01930295
-0.004411401 -0.0481208 -0.04863004 -0.011256831 0.0011237226 -0.009516417 -0.011165946 0.0046053682
-0.04533999 -0.019166369 0.044350978 -0.022563936 -0.023835996 0.012365143 0.014646006 0.016207987
0.0011362636 0.014964081 -0.016144231 -0.0091343345 0.047828503 -0.01192862 0.02598883 0.06276707
0.021032713 0.032812066 0.10051632 -0.0042869276 -0.013678109 0.031496767 -0.025981622 0.021922342
-0.016756363 0.030176617 0.039089255 -0.0110561885 0.021237992 -0.01888828 0.008738628 0.00871207
-0.018670686 0.03244871 -0.04017366 -0.008996363 0.086729914 0.039946605 0.018387264 -0.036287263
-0.034257736 -0.023254164 0.007413312 -0.038213402 -0.019795323 0.03180812 -0.025474474 -0.028140267
-0.047589347 -0.037218302 0.012750476 -0.011767512 -0.035212167 -0.07689778 -0.00662858 -0.06984494
-0.010881794 0.010504737 -0.0004477443 0.01505385 0.024938112 0.0069633154 -0.054356545 -0.015637834
-0.017087637 0.009054371 -0.023737807 -0.024963811 -0.03842998 -0.035050586 -0.019122375 0.021802045
8.613624e-05 0.0035866965 0.021939402 0.018030081 -0.012762156 0.045337822 0.032871384 0.040633466
0.0580175 -0.017445834 -0.022382665 -0.02889684 -0.06913049 0.023990752 -0.041997828 0.002457689
-0.022695404 -0.022747483 -0.0032107136 -0.020543791 -0.029481929 0.011678508 -0.075109266 0.010543382
0.015843738 -0.04315056 0.019793026 -0.048510265 -0.056278385 -0.04533191 0.06947615 0.012878685
-0.03589571 -0.008214991 0.010586905 -0.042782806 0.02389933 0.011242731 0.03431733 0.019080073
0.008844114 -0.025478726 -0.0061825896 -0.036583822 -0.008078554 -0.0046431753 -0.0021330095 0.020804366
0.05930862 -0.037951905 0.031411152 -0.053406533 -0.006907806 -0.037858643 0.0014852047 -0.027976446
-0.058557276 0.038992077 -0.0065068435 0.043047808 0.0348621 -0.022040252 -0.028012838 -0.012164129
-0.042874865 0.014851346 -0.018455602 0.028884022 -0.041163843 0.018082473 -0.01860382 -0.039990675
0.020891918 -0.011347771 -0.010542729 -0.013977301 0.027330374 -0.0377012 0.026863122 0.04135784
-0.01704244 -0.019433673 0.027938828 0.013673658 0.039119456 0.008161092 -0.032145806 -0.030350052
-0.0588125 -0.05358734 0.0008979283 0.11298593 -0.027404318 0.030542994 -0.031825297 0.061168857

bias f4 [64]
00000000: a287 9abb 0dde 35bd 57fd 30bd 1114 10bd
00000010: c82b 71bd 9791 78bd 7661 3fbc 8a9b 8cbd
00000020: a451 7bbd 8874 83bc 8e12 86bd 18cc c8bd
00000030: 7dd7 69bd 8a4e 5fbd 3e4e 9ebd 74e7 86bc
00000040: 7e61 44bd e6ef d5bd 79f9 98bd 39f6 4dbd
00000050: cb6e 3ebd b87b 56bd 823e 1fbd f8f9 88bd
00000060: 0a2d e3bd 1b5b 13bd 65a9 86bd 5a65 d7bd
00000070: 3c80 e4bc 1bbb b0bd 906f aabd 285c fdbc
00000080: 9f35 0fbe 4ebe e1bc d4cd 63bd 76c1 bc3c
00000090: c691 adbd d789 94bd bedb 6fbd 5ca4 aabd
000000a0: 0f5f 92bd 0ccb 573d e688 22bd ea35 a6bc
000000b0: b2d0 3dbd 3873 1bbe 78bf 83bd 2407 a5bd
000000c0: a5f5 94bd aae9 6ebd cae7 e0bd 49d4 84bd
000000d0: 3440 8abd efb3 3fbd effc 48bc bc82 69bd
000000e0: dd64 34be 323b dabb 9b93 4bbd d14d babd
000000f0: 16e4 32bc 1a77 33bd 10ff b1bd 1f13 bfbd
-0.0047158757 -0.044401217 -0.043210354 -0.035175387 -0.058879644 -0.06068572 -0.011680951 -0.06865604
-0.061357155 -0.016046777 -0.06546508 -0.09804553 -0.05709027 -0.05451826 -0.07729767 -0.016467787
-0.04794454 -0.104461476 -0.07469458 -0.050283644 -0.04649238 -0.05236408 -0.03887797 -0.06688303
-0.11092575 -0.035975557 -0.06575278 -0.10517378 -0.027893178 -0.086294375 -0.0832206 -0.030927733
-0.13985299 -0.027556565 -0.055616215 0.023041468 -0.0847507 -0.07252853 -0.05855917 -0.0833213
-0.07147037 0.052683875 -0.039681338 -0.02028938 -0.046341605 -0.15180671 -0.06433004 -0.080580026
-0.072734155 -0.05832831 -0.1098171 -0.06485803 -0.06750527 -0.046802457 -0.012267335 -0.057009444
-0.17616601 -0.0066598887 -0.049701314 -0.090968736 -0.010918638 -0.043814756 -0.086912274 -0.09329819

weight f4 [64, 1024]
00000000: d695 43bd d072 e4bc 8d50 8cbc 6ab7 ad3c
00000010: 2b05 963c 5451 0ebd 1935 39bc c5aa 133d
00000020: 35b5 763c f262 5c3d 9f29 43bd 2712 0a3d
00000030: 8f19 5e3c 1903 e93b 0684 aabc 20c6 2ebb
00000040: 05f0 03bc ef79 963c 2a4f 4bbd 6ffa f93b
00000050: 4092 f83c 9264 a9bc 8c40 20bb 2177 043d
00000060: 4e79 02bd 5825 a9bc 1037 52bb 3f2d 32bb
00000070: d7fa 863c 95d2 97bb c45f 7b3b 8519 a0bc
00000080: 9345 8e3c d146 0cbd c14c 103b 8761 49bc
00000090: d2a6 943a 6361 af3c 3040 18bd 3b51 153c
000000a0: 8c79 1f3d 581f 9d3b 5004 1a3c ff06 4abb
000000b0: 67d3 20bb e03c d73c a8d1 043d 84fc b1bc
000000c0: f387 27bc 4994 183c 3a49 38bd a968 5bbd
000000d0: 3079 c33c 0791 b03b 64fd a33c 6612 8b3b
000000e0: 2341 423c 8c83 54bd 72fd 1f3d 462e e23c
000000f0: 4bb2 55bc 5b39 8fbc af24 2fbd 22b1 2f3c
00000100: 5803 c13c 3e16 debc df66 c7bc 222a 093d
00000110: 48e9 b33c 171c cd3c b48d 6e3c c750 ae3c
00000120: 42a8 083d 1f2f 533d 5079 0c3d 90a3 003c
00000130: 4214 103d 2afa 92bb b5b2 0d3c c830 8e3b
00000140: 5ccc 493b c2b6 fbbb 4f4b abbc 0b62 513c
00000150: d16d 13bd b291 943d 529b 51bc c1a4 80bc
00000160: d059 0a3d edc9 ebbc f6b6 c0bc a1d7 83b9
00000170: 8dc1 12bc d95a 25bd d23f f2bc 11f9 e73a
00000180: f0d9 96bc cad7 d63a 569e a3bc c406 acbc
00000190: 49dd 8bbc fb0f bd3c 2cd4 a7bc 8500 edbb
000001a0: 47bd 83bd 96c5 953b 2f2f 95bc 1224 57bc
000001b0: 3621 d53a c5cd ceba 28b4 d1bc defa f5bc
000001c0: 8056 143c 1b36 093c df4b 8a3b 01eb fa3c
000001d0: 442f edba 15c4 fa3c b998 2a3d 2cad 87ba
000001e0: e890 2cbd c0b0 6dbd c8dd 933c 2430 1a3c
000001f0: c941 223d cb1c b3bc 3579 653c 44c2 eebc
00000200: 9c46 f7bc 86c7 fd3a 7878 8c3c cfe7 58bd
00000210: 066c eb3c 5e0a 5d3d 0200 7a3d 32e6 63bd
00000220: ebb8 f93c 5c00 b03b 9821 99bb e6dd ce3c
00000230: 3fd0 10bc 21ef b0bc 5843 01bd f02c 6cbd
00000240: de42 33bb 3802 db3b 6e66 cdbc 561e fcbc
00000250: deba 26bd c7cf 0abc 64ab 283c 28c3 08bd
00000260: 0e2f f9bc f315 0fbc e16b 45bd ee5e 823b
00000270: cb51 3cbd 2fda 8cbd 5ef3 d8bc fd69 3abc
00000280: ba19 9a3b 069d b63c 0304 463d 17e3 283c
00000290: 37f2 a3bc e187 72bd d926 3d3d a1b1 0ebb
000002a0: b949 c13b 27ba 9cbc db62 aebc bfc0 23bc
000002b0: e70f 13bb 2a0e ea39 ce37 8fbc 6ed2 83bc
000002c0: 57f1 043c 78bc 243d 8e1c 103d 7a43 deba
000002d0: 7611 0ebd 5767 523b 48c9 aebc 387f 933c
000002e0: 6046 30bc d6a9 63bc d279 d0bc 9d62 613d
000002f0: 9d69 b1bc da60 74bd b296 dcbc ced4 44bb
00000300: a312 ffbb 3200 c7bc 59be 213d d24f 15ba
00000310: b27c 29bc 220d 31bd 2d69 a1bc 98ff f53c
00000320: 322d 8a3c cc35 5f3c 65e5 a5bc 567c ffbc
00000330: b6c2 663d 0e0b 023d 3650 7b3b 7c19 583d
00000340: 1667 313d e64e 583c a4a3 2abd 333f fdbc
00000350: 5ba1 0b3c 3b32 fe3c 3c7f efbc af9c 413b
00000360: b11d 4f3c 7d39 c9bc b203 adbc b089 93bc
00000370: 1e97 0e3d 7c90 113d 09d2 283d 8b0b cdbb
00000380: e38a 02bc 7271 4cbc 4d34 0dbd 3093 1f3c
00000390: c183 b93c 31bd 1a3d 8155 8cbc 5a4e b83c
000003a0: c73c 30bc 485f b4bc 5c91 0bbd cfdd 28bc
000003b0: 7be4 77bd dd1f c9bb 4f36 9bbc bd95 05bd
000003c0: 28c5 7e3c a485 1abd 4d8c fe3b b643 dfbc
000003d0: a518 82bc 9c20 60bd 67d8 03bc d57f a6ba
000003e0: 5ce4 7abb 59d6 9fbb 9347 22bd 0b10 c23c
000003f0: 1e27 a43d ef3a 7d3d a0e3 013d 77d5 f23c
-0.047750317 -0.027886778 -0.017128253 0.021205623 0.018313011 -0.03474553 -0.011304163 0.03605153
0.015057852 0.0538053 -0.047647115 0.033708718 0.013555898 0.007110965 -0.020814907 -0.0026668385
-0.008052831 0.01836869 -0.049636044 0.007628731 0.030343175 -0.020677838 -0.0024452535 0.032340173
-0.031853966 -0.02064769 -0.0032076277 -0.0027187613 0.016477032 -0.0046332576 0.0038356641 -0.019543419
0.01736716 -0.034247223 0.0022018405 -0.012291319 0.001134122 0.021408742 -0.03717059 0.009113605
0.038934276 0.004794996 0.009400442 -0.0030826924 -0.0024540068 0.026274145 0.032426506 -0.021726854
-0.010225284 0.009312698 -0.04499171 -0.05356661 0.023861498 0.0053883824 0.020018287 0.0042441366
0.01185635 -0.051883265 0.039060064 0.027609956 -0.013042997 -0.017483404 -0.042759594 0.010723384
0.023561165 -0.027110215 -0.024341045 0.033487447 0.021961823 0.025037808 0.014560152 0.021278752
0.03336359 0.05155861 0.03429538 0.007851496 0.03517557 -0.0044853883 0.008648564 0.0043393113
0.0030791974 -0.0076816985 -0.020909933 0.012779723 -0.0359934 0.07254352 -0.012793379 -0.01570356
0.033777058 -0.02878281 -0.023524743 -0.00025146923 -0.008957279 -0.040369842 -0.029571448 0.0017698129
-0.018414468 0.0016391214 -0.019972961 -0.02099932 -0.01707329 0.02307891 -0.020486914 -0.007232728
-0.06432586 0.004570673 -0.018210975 -0.013131158 0.0016260508 -0.0015777877 -0.0255986 -0.03002685
0.009053826 0.008374716 0.0042204703 0.030629637 -0.0018095751 0.030611077 0.041649554 -0.0010351292
-0.04213038 -0.05802989 0.01805009 0.009410892 0.03961352 -0.021864315 0.014005949 -0.029145367
-0.030185036 0.0019361831 0.017147288 -0.052955445 0.028738033 0.053964965 0.061035164 -0.055639453
0.030483684 0.0053711366 -0.004673194 0.025252294 -0.008838712 -0.0215984 -0.031558365 -0.057660043
-0.0027353088 0.006683614 -0.025073256 -0.030776184 -0.040705554 -0.00847239 0.010294769 -0.03338924
-0.030417945 -0.00873326 -0.048198584 0.0039786017 -0.04597644 -0.06877553 -0.026483234 -0.011377809
0.004702774 0.022291671 0.04834367 0.010308049 -0.020012958 -0.059211615 0.046179626 -0.0021773356
0.005898681 -0.019131733 -0.021287372 -0.009994685 -0.0022439898 0.0004464251 -0.017482664 -0.016091552
0.0081141805 0.0402188 0.035183482 -0.0016957365 -0.03468462 0.0032105052 -0.021336213 0.018004999
-0.010758966 -0.0138954725 -0.025448713 0.055025686 -0.021656806 -0.059662677 -0.026927326 -0.0030034068
-0.007784204 -0.024292085 0.03948817 -0.0005695793 -0.010344671 -0.043225415 -0.019703472 0.030029103
0.016867254 0.013623666 -0.020250985 -0.031187218 0.056338035 0.031748824 0.003834737 0.05275868
0.0433112 0.013202405 -0.041659966 -0.030913925 0.008522357 0.031029811 -0.029235475 0.0029542854
0.012641356 -0.024563545 -0.021119926 -0.01800999 0.034812085 0.03553818 0.04121593 -0.0062574795
-0.0079676835 -0.012478219 -0.034473706 0.009739682 0.022645833 0.037778083 -0.017130615 0.022498298
-0.010756678 -0.02201809 -0.034074172 -0.01030679 -0.06052063 -0.0061378316 -0.018946795 -0.032613505
0.015549935 -0.037725106 0.00776819 -0.027253967 -0.015880892 -0.0547186 -0.0080472 -0.0012702892
-0.0038283085 -0.004877847 -0.03961904 0.02368929 0.080152735 0.06182378 0.03171122 0.029642804

bias f4 [64]
00000000: 8e23 dd3c 5a69 03bd cc50 683b 892c d4bb
00000010: b999 aabc 6c5e 2cbd d813 323c 5442 00bd
00000020: 2094 99bd d758 e33c a7d7 adbc 3bd9 a53c
00000030: 2651 99bd 9f96 12bd 7cc1 923c 2732 0d3b
00000040: 5dfa 7a3b a574 833c 3c8d 2dbd 84c9 88bc
00000050: 63fb 6c3c 9fbd a9bc b00c 603d 1a9f 1abd
00000060: e169 ecbb 66c2 943c cdf8 113d 3b73 19bd
00000070: 6586 a73c 3d26 653c 470e df3b 898f 093d
00000080: e4d1 113d 6b0c 53bd 0442 9ebc ee6d 5a3b
00000090: c40a a5bc c21e 9b3c 5435 4d3b e005 89bc
000000a0: 64d8 9e3c eeee fdbc 7178 bc3b f529 a1bc
000000b0: 4577 553d d6da 4bbd accf d8bc 60ba ee3c
000000c0: 3a88 703c 85fa 113b 25ad 803b 6591 ff3c
000000d0: be1c b7bc 980e 4a3c 7bf3 d03c 160b 81bc
000000e0: 4e2d 193c cf6c babc fb5b ffbc dc35 5ebd
000000f0: 33ab 9f3c 3d25 06bd da99 3fbc 26c8 743c
0.026994493 -0.032082893 0.003544855 -0.0064750356 -0.020825254 -0.042082235 0.010868989 -0.031313255
-0.07498956 0.027752323 -0.021220995 0.020245185 -0.07486181 -0.035788175 0.017914526 0.0021544786
0.00382962 0.016046831 -0.04237102 -0.016697653 0.014464232 -0.020720301 0.0546996 -0.037749387
-0.00721477 0.018159103 0.035637666 -0.037463408 0.020449826 0.0139861675 0.006807122 0.03358415
0.035600558 -0.051525515 -0.019318588 0.0033329683 -0.020146735 0.018935565 0.0031312304 -0.016726434
0.019390292 -0.03099772 0.0057516624 -0.019673327 0.052115697 -0.049769245 -0.026466213 0.029141605
0.014680916 0.0022274565 0.0039268904 0.03119726 -0.022352573 0.012332581 0.025506726 -0.015752356
0.00934918 -0.022756962 -0.03117179 -0.054250583 0.019490814 -0.032750357 -0.011694396 0.014940297

weight f4 [10, 64]
00000000: 18c8 55be 44ac d43d 4aed 5dbc 1f32 bebc
00000010: 13a5 203e 7e5f 8cbc 9474 123e df12 84bb
00000020: 5cf3 ad3e ddc1 373e 5d82 923d 4f78 84be
00000030: d8b2 d33c 54e3 6d3d c283 b7bd e09b 86bd
00000040: 0449 323e 3e49 dbbd 082d 4a3e 1b9a 9e3d
00000050: acbe 2e3e 885a debc f211 083e 2576 3f3e
00000060: 3aeb c33e 9b59 f0bd 6a2b 863c 0050 90be
00000070: f767 3dbe 874f 813c f362 0c3d 9a7b 7abe
00000080: 56bc 593e 746c 313e 4bd9 cb3d 28e5 f8bd
00000090: 53eb 973e 2e31 b63e 04c8 96bd dc66 9e3e
000000a0: 95a3 383d 51bd 303e a0bd 42bc d7e3 8c3e
000000b0: a571 c9be f589 773e 499a fb3d 505f 00be
000000c0: 303a f23c 9ec8 8abd a650 163e 21fb a8be
000000d0: 30f6 093d f9b5 553e d352 2d3d 1232 6c3e
000000e0: d15f 4c3e 010f 0cbe 7653 1f3d 7fd5 24bd
000000f0: d6d3 e7bd a782 cc3d a3f0 6e3d 3d64 00bd
00000100: 13a2 0b3e 7b5f 243e b6e3 f7bd 604f 413e
00000110: faae 8d3e 0ead 463e 3512 6bbe 72ea a6bc
00000120: f5b2 d83d be9f 5cbe 8873 99be 1838 d73d
00000130: 3f46 34bd 7ce5 83be efaa 853e 2320 36bd
00000140: 8d72 093e d5a3 5fbe c1f1 fcbc 81cb 0f3e
00000150: 366c 2cbc 0fd0 05bd f771 63bd 44f0 b5be
00000160: 47f2 3a3e 4251 34be 1603 703d 8648 c03d
00000170: de1a 54be 5b75 f8bd 11b3 a73d 78bc f4bc
00000180: fa17 39be 553a 05be b543 48be 394c c53e
00000190: 2cc5 bebe 8a9d 9f3e 3727 213e 7c28 0fbe
000001a0: 305e 6a3d eb28 01be e3a9 053e b345 7d3e
000001b0: 60ba 9dbe 9717 b5be c5be 563d affd a9bd
000001c0: 1d2e b9be 0fa4 853d ff7a 72be 3290 82be
000001d0: 8eb1 d1bc a60b aebd 700f 373e 7d21 9b3d
000001e0: c234 813e 1f58 5bbe 95e4 55be 8ece 923e
000001f0: 304e 5a3e 5af4 88be 6b7f 46bd d8ab ac3e
00000200: 928e 763d 88e3 42bd 13b8 163e 106c 9fbe
00000210: 845b 8ebd 6132 69be 56e2 ae3d 29ab 02be
00000220: c8ea 013e b0f1 79be c168 b53d 3f1a 9e3e
00000230: 10bd eebd 90c9 a6bc ed69 a5be 8eed 8d3e
00000240: 3f4d 16be c5d6 86be 936b 1d3e ccfb 7d3d
00000250: 064a 98bd 9608 a7bd bb9c 85bc 4b9e 3d3e
00000260: 1ce7 713e ab2f 75be 635a 91be 3348 5b3e
00000270: cec9 59be 0b65 a6be 4125 f3bc 2c15 5cbd
00000280: dfd6 903e 0771 823c 954e 63be 7d79 35be
00000290: 3626 5a3e 0f29 6abe 4cd1 c4bd c8f5 d83d
000002a0: 49a6 72be 71df a4bd c6de 65bd 5c9c 853d
000002b0: 9124 bdbd a34e 303c 2088 85bc a574 103d
000002c0: 4e01 d23e 82c6 3bbe fc59 9cbc 7012 ba3e
000002d0: c2c8 403b 604d 083e 38d8 88be 28a1 ad3d
000002e0: 028e cf3d 8ebd 343e 2f44 03bd 17f7 1e3d
000002f0: bd78 3cbd 8408 033e 7a84 673e 0c8d 24be
00000300: dff8 13bd 2369 5b3d 4425 553e d0a1 03be
00000310: 763c e13d 5038 36bd 043a fb3d 022c 0cbd
00000320: b976 4fbe 0912 b33d a16f 013c 5e3b 3a3e
00000330: cc25 d1bd 587f 07be 254c c43d 9710 41be
00000340: 1c25 2cbe 75c0 43be 9160 37bd 3d09 7ebe
00000350: 55ce 08bd 8016 82bd 22cb 3b3d 4414 8fbe
00000360: 41c7 6ebe c225 dc3c 2cc7 333e 4d61 1fbe
00000370: 9df8 97bd 4097 3cbd 56a6 0bbe abcd 34be
00000380: 5f85 fcbc a305 78be 97f6 c53d 2a7a dcbd
00000390: d3d4 143e 8528 143d 3626 33be 5f9e 013b
000003a0: 3119 4c3e a260 f53d f721 1dbd f2f4 56be
000003b0: 6b2f 9b3e ffd9 e63d 0d6b ea3d ed19 323e
000003c0: 392c e3bc 475d 8a3c f8ec ccbd 3a3e 673e
000003d0: 5bf2 a8bd 9c8a f9bd ccd2 ccbd 683e 763e
000003e0: ac63 2d3d a5cb dd3b 91ad 3a3e 3c8b ccbd
000003f0: 2402 99be d198 3e3d 8d0d 3f3d 5ce4 fb3d
-0.20877111 0.103844196 -0.013545344 -0.023217259 0.15687971 -0.017135378 0.14302284 -0.00403057
0.3397473 0.17945047 0.07153771 -0.25873038 0.025842115 0.058078125 -0.08960678 -0.065726995
0.17410666 -0.10707329 0.1974374 0.07744237 0.17064923 -0.027142778 0.13288096 0.18697412
0.382654 -0.11735841 0.016378123 -0.28186035 -0.1849669 0.015784992 0.034274053 -0.24461213
0.2126325 0.17326528 0.09953555 -0.12153083 0.29671726 0.35584396 -0.07362369 0.3093785
0.04507788 0.17259718 -0.01188603 0.27517578 -0.39344516 0.2417372 0.12285287 -0.12536359
0.029568762 -0.06776546 0.14679202 -0.33004096 0.03368205 0.20870198 0.042315315 0.23065975
0.19958426 -0.13677599 0.038897954 -0.04024267 -0.113197014 0.099858575 0.058334958 -0.031345595
0.13636045 0.16052048 -0.12103979 0.18877935 0.2767256 0.19401953 -0.22956164 -0.020375464
0.10581008 -0.21545312 -0.29970956 0.10508746 -0.044012304 -0.2576102 0.26106974 -0.04446424
0.13422604 -0.2183984 -0.030876996 0.14042474 -0.010523846 -0.032669123 -0.055528607 -0.3553487
0.18256484 -0.17609122 0.058596693 0.09388833 -0.20713374 -0.12131759 0.08188451 -0.029875025
-0.18075553 -0.13010533 -0.19557078 0.38534716 -0.37259805 0.3117488 0.15737616 -0.13980287
0.05721873 -0.12613265 0.13053088 0.2473362 -0.30806255 -0.3536956 0.052428026 -0.083003394
-0.36167994 0.06525432 -0.23679732 -0.25500637 -0.02559736 -0.084983155 0.17876983 0.07574747
0.25235564 -0.21420334 -0.20887978 0.28673214 0.21318889 -0.26748925 -0.04846136 0.33724856
0.06019456 -0.047580272 0.14718656 -0.31137133 -0.06951049 -0.22773124 0.08539264 -0.12760605
0.12687218 -0.24408603 0.08857871 0.308794 -0.116571546 -0.020359784 -0.32307377 0.27720302
-0.14677905 -0.2633573 0.15373068 0.06200771 -0.07435994 -0.081559345 -0.016310086 0.18517415
0.23623317 -0.23943965 -0.28389272 0.2141426 -0.21268389 -0.32498965 -0.02968085 -0.05373113
0.28288934 0.015923036 -0.22197945 -0.17722125 0.21303639 -0.22867225 -0.09610233 0.10593754
-0.23696245 -0.080504306 -0.056120656 0.06523964 -0.0923549 0.010760936 -0.016300261 0.03526749
0.4101662 -0.18337443 -0.019085877 0.36342192 0.0029416536 0.13310766 -0.26727462 0.08478004
0.10134508 0.17650434 -0.032047447 0.038809862 -0.046013582 0.12796217 0.2260913 -0.1606943
-0.036126014 0.053567063 0.20814997 -0.12854695 0.1099786 -0.044487298 0.12266925 -0.034221657
-0.20260133 0.08743674 0.00790015 0.1818671 -0.10212287 -0.13232172 0.09584836 -0.18853985
-0.16811031 -0.19116385 -0.044769827 -0.24808212 -0.0333999 -0.06351948 0.04584802 -0.2794515
-0.23318197 0.026873473 0.17556447 -0.15564461 -0.07420466 -0.04604268 -0.13637671 -0.17656581
-0.030825315 -0.242209 0.09666174 -0.107654884 0.14534311 0.036171455 -0.17495045 0.0019778234
0.19931485 0.11981322 -0.03836247 -0.20991877 0.30309615 0.11272048 0.114461996 0.17392702
-0.027731048 0.016890181 -0.10006136 0.22582331 -0.08249351 -0.12184641 -0.10001144 0.24047244
0.042331383 0.006768661 0.18230273 -0.09987494 -0.29884446 0.046532456 0.046643782 0.122994155

bias f4 [10]
00000000: 0529 a0bd 3b0d 95bd 3c89 c6bc 46a0 be3d
00000010: dbb0 8b3d 516d c8bd 2fab 2a3e d8df c83c
00000020: 8827 dcbd e18a 1bbd
-0.07820324 -0.07277914 -0.02423536 0.093079135 0.06820842 -0.097864754 0.16666864 0.0245208
-0.107497275 -0.037974242
